…
I0410 04:32:05.622455 25986 solver.cpp:102] Creating training net from net file: /data1/xiaobo/crowd_net/models/dcc_crowdnet/train_val.prototxt
I0410 04:32:05.622674 25986 net.cpp:296] The NetState phase (0) differed from the phase (1) specified by a rule in layer data
I0410 04:32:05.622818 25986 net.cpp:53] Initializing net from parameters: 
name: "dcc_crowdnet"
state {
  phase: TRAIN
  level: 0
  stage: ""
}
layer {
  name: "data"
  type: "HDF5Data"
  top: "data"
  top: "label"
  include {
    phase: TRAIN
  }
  hdf5_data_param {
    source: "/data1/xiaobo/crowd_net/data/dcc_crowdnet/train.txt"
    batch_size: 10
  }
}
layer {
  name: "conv1_1"
  type: "Convolution"
  bottom: "data"
  top: "conv1_1"
  param {
    lr_mult: 1
    decay_mult: 1
  }
  param {
    lr_mult: 2
    decay_mult: 0
  }
  convolution_param {
    num_output: 64
    pad: 1
    kernel_size: 3
    weight_filler {
      type: "gaussian"
      std: 0.01
    }
    bias_filler {
      type: "constant"
      value: 0
    }
  }
}
layer {
  name: "relu1_1"
  type: "ReLU"
  bottom: "conv1_1"
  top: "conv1_1"
}
layer {
  name: "conv1_2"
  type: "Convolution"
  bottom: "conv1_1"
  top: "conv1_2"
  param {
    lr_mult: 1
    decay_mult: 1
  }
  param {
    lr_mult: 2
    decay_mult: 0
  }
  convolution_param {
    num_output: 64
    pad: 1
    kernel_size: 3
    weight_filler {
      type: "gaussian"
      std: 0.01
    }
    bias_filler {
      type: "constant"
      value: 0
    }
  }
}
layer {
  name: "relu1_2"
  type: "ReLU"
  bottom: "conv1_2"
  top: "conv1_2"
}
layer {
  name: "pool1"
  type: "Pooling"
  bottom: "conv1_2"
  top: "pool1"
  pooling_param {
    pool: MAX
    kernel_size: 2
    stride: 2
  }
}
layer {
  name: "conv2_1"
  type: "Convolution"
  bottom: "pool1"
  top: "conv2_1"
  param {
    lr_mult: 1
    decay_mult: 1
  }
  param {
    lr_mult: 2
    decay_mult: 0
  }
  convolution_param {
    num_output: 128
    pad: 1
    kernel_size: 3
    weight_filler {
      type: "gaussian"
      std: 0.01
    }
    bias_filler {
      type: "constant"
      value: 0
    }
  }
}
layer {
  name: "relu2_1"
  type: "ReLU"
  bottom: "conv2_1"
  top: "conv2_1"
}
layer {
  name: "conv2_2"
  type: "Convolution"
  bottom: "conv2_1"
  top: "conv2_2"
  param {
    lr_mult: 1
    decay_mult: 1
  }
  param {
    lr_mult: 2
    decay_mult: 0
  }
  convolution_param {
    num_output: 128
    pad: 1
    kernel_size: 3
    weight_filler {
      type: "gaussian"
      std: 0.01
    }
    bias_filler {
      type: "constant"
      value: 0
    }
  }
}
layer {
  name: "relu2_2"
  type: "ReLU"
  bottom: "conv2_2"
  top: "conv2_2"
}
layer {
  name: "pool2"
  type: "Pooling"
  bottom: "conv2_2"
  top: "pool2"
  pooling_param {
    pool: MAX
    kernel_size: 2
    stride: 2
  }
}
layer {
  name: "conv3_1"
  type: "Convolution"
  bottom: "pool2"
  top: "conv3_1"
  param {
    lr_mult: 1
    decay_mult: 1
  }
  param {
    lr_mult: 2
    decay_mult: 0
  }
  convolution_param {
    num_output: 256
    pad: 1
    kernel_size: 3
    weight_filler {
      type: "gaussian"
      std: 0.01
    }
    bias_filler {
      type: "constant"
      value: 0
    }
  }
}
layer {
  name: "relu3_1"
  type: "ReLU"
  bottom: "conv3_1"
  top: "conv3_1"
}
layer {
  name: "conv3_2"
  type: "Convolution"
  bottom: "conv3_1"
  top: "conv3_2"
  param {
    lr_mult: 1
    decay_mult: 1
  }
  param {
    lr_mult: 2
    decay_mult: 0
  }
  convolution_param {
    num_output: 256
    pad: 1
    kernel_size: 3
    weight_filler {
      type: "gaussian"
      std: 0.01
    }
    bias_filler {
      type: "constant"
      value: 0
    }
  }
}
layer {
  name: "relu3_2"
  type: "ReLU"
  bottom: "conv3_2"
  top: "conv3_2"
}
layer {
  name: "conv3_3"
  type: "Convolution"
  bottom: "conv3_2"
  top: "conv3_3"
  param {
    lr_mult: 1
    decay_mult: 1
  }
  param {
    lr_mult: 2
    decay_mult: 0
  }
  convolution_param {
    num_output: 256
    pad: 1
    kernel_size: 3
    weight_filler {
      type: "gaussian"
      std: 0.01
    }
    bias_filler {
      type: "constant"
      value: 0
    }
  }
}
layer {
  name: "relu3_3"
  type: "ReLU"
  bottom: "conv3_3"
  top: "conv3_3"
}
layer {
  name: "pool3"
  type: "Pooling"
  bottom: "conv3_3"
  top: "pool3"
  pooling_param {
    pool: MAX
    kernel_size: 2
    stride: 2
  }
}
layer {
  name: "conv4_1"
  type: "Convolution"
  bottom: "pool3"
  top: "conv4_1"
  param {
    lr_mult: 1
    decay_mult: 1
  }
  param {
    lr_mult: 2
    decay_mult: 0
  }
  convolution_param {
    num_output: 512
    pad: 1
    kernel_size: 3
    weight_filler {
      type: "gaussian"
      std: 0.01
    }
    bias_filler {
      type: "constant"
      value: 0
    }
  }
}
layer {
  name: "relu4_1"
  type: "ReLU"
  bottom: "conv4_1"
  top: "conv4_1"
}
layer {
  name: "conv4_2"
  type: "Convolution"
  bottom: "conv4_1"
  top: "conv4_2"
  param {
    lr_mult: 1
    decay_mult: 1
  }
  param {
    lr_mult: 2
    decay_mult: 0
  }
  convolution_param {
    num_output: 512
    pad: 1
    kernel_size: 3
    weight_filler {
      type: "gaussian"
      std: 0.01
    }
    bias_filler {
      type: "constant"
      value: 0
    }
  }
}
layer {
  name: "relu4_2"
  type: "ReLU"
  bottom: "conv4_2"
  top: "conv4_2"
}
layer {
  name: "conv4_3"
  type: "Convolution"
  bottom: "conv4_2"
  top: "conv4_3"
  param {
    lr_mult: 1
    decay_mult: 1
  }
  param {
    lr_mult: 2
    decay_mult: 0
  }
  convolution_param {
    num_output: 512
    pad: 1
    kernel_size: 3
    weight_filler {
      type: "gaussian"
      std: 0.01
    }
    bias_filler {
      type: "constant"
      value: 0
    }
  }
}
layer {
  name: "relu4_3"
  type: "ReLU"
  bottom: "conv4_3"
  top: "conv4_3"
}
layer {
  name: "pool4"
  type: "Pooling"
  bottom: "conv4_3"
  top: "pool4"
  pooling_param {
    pool: MAX
    kernel_size: 2
    stride: 1
  }
}
layer {
  name: "conv5_1"
  type: "Convolution"
  bottom: "pool4"
  top: "conv5_1"
  param {
    lr_mult: 1
    decay_mult: 1
  }
  param {
    lr_mult: 2
    decay_mult: 0
  }
  convolution_param {
    num_output: 512
    pad: 2
    kernel_size: 3
    weight_filler {
      type: "gaussian"
      std: 0.01
    }
    bias_filler {
      type: "constant"
      value: 0
    }
    dilation: 2
  }
}
layer {
  name: "relu5_1"
  type: "ReLU"
  bottom: "conv5_1"
  top: "conv5_1"
}
layer {
  name: "conv5_2"
  type: "Convolution"
  bottom: "conv5_1"
  top: "conv5_2"
  param {
    lr_mult: 1
    decay_mult: 1
  }
  param {
    lr_mult: 2
    decay_mult: 0
  }
  convolution_param {
    num_output: 512
    pad: 2
    kernel_size: 3
    weight_filler {
      type: "gaussian"
      std: 0.01
    }
    bias_filler {
      type: "constant"
      value: 0
    }
    dilation: 2
  }
}
layer {
  name: "relu5_2"
  type: "ReLU"
  bottom: "conv5_2"
  top: "conv5_2"
}
layer {
  name: "conv5_3"
  type: "Convolution"
  bottom: "conv5_2"
  top: "conv5_3"
  param {
    lr_mult: 1
    decay_mult: 1
  }
  param {
    lr_mult: 2
    decay_mult: 0
  }
  convolution_param {
    num_output: 512
    pad: 2
    kernel_size: 3
    weight_filler {
      type: "gaussian"
      std: 0.01
    }
    bias_filler {
      type: "constant"
      value: 0
    }
    dilation: 2
  }
}
layer {
  name: "relu5_3"
  type: "ReLU"
  bottom: "conv5_3"
  top: "conv5_3"
}
layer {
  name: "sw_conv1"
  type: "Convolution"
  bottom: "data"
  top: "sw_conv1"
  param {
    lr_mult: 10
    decay_mult: 1
  }
  param {
    lr_mult: 20
    decay_mult: 0
  }
  convolution_param {
    num_output: 24
    pad: 3
    kernel_size: 5
    weight_filler {
      type: "gaussian"
      std: 0.01
    }
    bias_filler {
      type: "constant"
      value: 0
    }
  }
}
layer {
  name: "sw_relu1"
  type: "ReLU"
  bottom: "sw_conv1"
  top: "sw_conv1"
}
layer {
  name: "sw_pool1"
  type: "Pooling"
  bottom: "sw_conv1"
  top: "sw_pool1"
  pooling_param {
    pool: AVE
    kernel_size: 5
    stride: 2
  }
}
layer {
  name: "sw_conv2"
  type: "Convolution"
  bottom: "sw_pool1"
  top: "sw_conv2"
  param {
    lr_mult: 10
    decay_mult: 1
  }
  param {
    lr_mult: 20
    decay_mult: 0
  }
  convolution_param {
    num_output: 24
    pad: 3
    kernel_size: 5
    weight_filler {
      type: "gaussian"
      std: 0.01
    }
    bias_filler {
      type: "constant"
      value: 0
    }
  }
}
layer {
  name: "sw_relu2"
  type: "ReLU"
  bottom: "sw_conv2"
  top: "sw_conv2"
}
layer {
  name: "sw_pool2"
  type: "Pooling"
  bottom: "sw_conv2"
  top: "sw_pool2"
  pooling_param {
    pool: AVE
    kernel_size: 5
    stride: 2
  }
}
layer {
  name: "sw_conv3"
  type: "Convolution"
  bottom: "sw_pool2"
  top: "sw_conv3"
  param {
    lr_mult: 10
    decay_mult: 1
  }
  param {
    lr_mult: 20
    decay_mult: 0
  }
  convolution_param {
    num_output: 24
    pad: 3
    kernel_size: 5
    weight_filler {
      type: "gaussian"
      std: 0.01
    }
    bias_filler {
      type: "constant"
      value: 0
    }
  }
}
layer {
  name: "sw_relu3"
  type: "ReLU"
  bottom: "sw_conv3"
  top: "sw_conv3"
}
layer {
  name: "sw_pool3"
  type: "Pooling"
  bottom: "sw_conv3"
  top: "sw_pool3"
  pooling_param {
    pool: AVE
    kernel_size: 5
    stride: 2
  }
}
layer {
  name: "concat1"
  type: "Concat"
  bottom: "conv5_3"
  bottom: "sw_pool3"
  top: "concat1"
  concat_param {
    axis: 1
  }
}
layer {
  name: "conv6"
  type: "Convolution"
  bottom: "concat1"
  top: "conv6"
  param {
    lr_mult: 10
    decay_mult: 1
  }
  param {
    lr_mult: 20
    decay_mult: 0
  }
  convolution_param {
    num_output: 1
    kernel_size: 1
    weight_filler {
      type: "gaussian"
      std: 0.01
    }
    bias_filler {
      type: "constant"
      value: 0
    }
  }
}
layer {
  name: "loss"
  type: "EuclideanLoss"
  bottom: "conv6"
  bottom: "label"
  top: "loss"
}
I0410 04:32:05.622910 25986 layer_factory.hpp:77] Creating layer data
I0410 04:32:05.622920 25986 net.cpp:86] Creating Layer data
I0410 04:32:05.622923 25986 net.cpp:382] data -> data
I0410 04:32:05.622941 25986 net.cpp:382] data -> label
I0410 04:32:05.622948 25986 hdf5_data_layer.cpp:81] Loading list of HDF5 filenames from: /data1/xiaobo/crowd_net/data/dcc_crowdnet/train.txt
I0410 04:32:05.622973 25986 hdf5_data_layer.cpp:95] Number of HDF5 files: 5
I0410 04:32:05.638583 25986 hdf5.cpp:33] Datatype class: H5T_FLOAT
I0410 04:32:28.007406 25986 net.cpp:124] Setting up data
I0410 04:32:28.007479 25986 net.cpp:131] Top shape: 10 3 225 225 (1518750)
I0410 04:32:28.007498 25986 net.cpp:131] Top shape: 10 28 28 (7840)
I0410 04:32:28.007509 25986 net.cpp:139] Memory required for data: 6106360
I0410 04:32:28.007532 25986 layer_factory.hpp:77] Creating layer data_data_0_split
I0410 04:32:28.007562 25986 net.cpp:86] Creating Layer data_data_0_split
I0410 04:32:28.007580 25986 net.cpp:408] data_data_0_split <- data
I0410 04:32:28.007614 25986 net.cpp:382] data_data_0_split -> data_data_0_split_0
I0410 04:32:28.007644 25986 net.cpp:382] data_data_0_split -> data_data_0_split_1
I0410 04:32:28.007758 25986 net.cpp:124] Setting up data_data_0_split
I0410 04:32:28.007781 25986 net.cpp:131] Top shape: 10 3 225 225 (1518750)
I0410 04:32:28.007795 25986 net.cpp:131] Top shape: 10 3 225 225 (1518750)
I0410 04:32:28.007807 25986 net.cpp:139] Memory required for data: 18256360
I0410 04:32:28.007818 25986 layer_factory.hpp:77] Creating layer conv1_1
I0410 04:32:28.007879 25986 net.cpp:86] Creating Layer conv1_1
I0410 04:32:28.007892 25986 net.cpp:408] conv1_1 <- data_data_0_split_0
I0410 04:32:28.007912 25986 net.cpp:382] conv1_1 -> conv1_1
I0410 04:32:29.793730 25986 net.cpp:124] Setting up conv1_1
I0410 04:32:29.793795 25986 net.cpp:131] Top shape: 10 64 225 225 (32400000)
I0410 04:32:29.793808 25986 net.cpp:139] Memory required for data: 147856360
I0410 04:32:29.793864 25986 layer_factory.hpp:77] Creating layer relu1_1
I0410 04:32:29.793937 25986 net.cpp:86] Creating Layer relu1_1
I0410 04:32:29.793957 25986 net.cpp:408] relu1_1 <- conv1_1
I0410 04:32:29.793975 25986 net.cpp:369] relu1_1 -> conv1_1 (in-place)
I0410 04:32:29.794551 25986 net.cpp:124] Setting up relu1_1
I0410 04:32:29.794581 25986 net.cpp:131] Top shape: 10 64 225 225 (32400000)
I0410 04:32:29.794593 25986 net.cpp:139] Memory required for data: 277456360
I0410 04:32:29.794605 25986 layer_factory.hpp:77] Creating layer conv1_2
I0410 04:32:29.794641 25986 net.cpp:86] Creating Layer conv1_2
I0410 04:32:29.794656 25986 net.cpp:408] conv1_2 <- conv1_1
I0410 04:32:29.794677 25986 net.cpp:382] conv1_2 -> conv1_2
I0410 04:32:29.800446 25986 net.cpp:124] Setting up conv1_2
I0410 04:32:29.800500 25986 net.cpp:131] Top shape: 10 64 225 225 (32400000)
I0410 04:32:29.800513 25986 net.cpp:139] Memory required for data: 407056360
I0410 04:32:29.800542 25986 layer_factory.hpp:77] Creating layer relu1_2
I0410 04:32:29.800563 25986 net.cpp:86] Creating Layer relu1_2
I0410 04:32:29.800577 25986 net.cpp:408] relu1_2 <- conv1_2
I0410 04:32:29.800593 25986 net.cpp:369] relu1_2 -> conv1_2 (in-place)
I0410 04:32:29.801187 25986 net.cpp:124] Setting up relu1_2
I0410 04:32:29.801215 25986 net.cpp:131] Top shape: 10 64 225 225 (32400000)
I0410 04:32:29.801226 25986 net.cpp:139] Memory required for data: 536656360
I0410 04:32:29.801239 25986 layer_factory.hpp:77] Creating layer pool1
I0410 04:32:29.801259 25986 net.cpp:86] Creating Layer pool1
I0410 04:32:29.801270 25986 net.cpp:408] pool1 <- conv1_2
I0410 04:32:29.801285 25986 net.cpp:382] pool1 -> pool1
I0410 04:32:29.801434 25986 net.cpp:124] Setting up pool1
I0410 04:32:29.801455 25986 net.cpp:131] Top shape: 10 64 113 113 (8172160)
I0410 04:32:29.801466 25986 net.cpp:139] Memory required for data: 569345000
I0410 04:32:29.801476 25986 layer_factory.hpp:77] Creating layer conv2_1
I0410 04:32:29.801504 25986 net.cpp:86] Creating Layer conv2_1
I0410 04:32:29.801539 25986 net.cpp:408] conv2_1 <- pool1
I0410 04:32:29.801556 25986 net.cpp:382] conv2_1 -> conv2_1
I0410 04:32:29.811118 25986 net.cpp:124] Setting up conv2_1
I0410 04:32:29.811169 25986 net.cpp:131] Top shape: 10 128 113 113 (16344320)
I0410 04:32:29.811182 25986 net.cpp:139] Memory required for data: 634722280
I0410 04:32:29.811210 25986 layer_factory.hpp:77] Creating layer relu2_1
I0410 04:32:29.811240 25986 net.cpp:86] Creating Layer relu2_1
I0410 04:32:29.811255 25986 net.cpp:408] relu2_1 <- conv2_1
I0410 04:32:29.811277 25986 net.cpp:369] relu2_1 -> conv2_1 (in-place)
I0410 04:32:29.811913 25986 net.cpp:124] Setting up relu2_1
I0410 04:32:29.811947 25986 net.cpp:131] Top shape: 10 128 113 113 (16344320)
I0410 04:32:29.811961 25986 net.cpp:139] Memory required for data: 700099560
I0410 04:32:29.811972 25986 layer_factory.hpp:77] Creating layer conv2_2
I0410 04:32:29.812001 25986 net.cpp:86] Creating Layer conv2_2
I0410 04:32:29.812013 25986 net.cpp:408] conv2_2 <- conv2_1
I0410 04:32:29.812041 25986 net.cpp:382] conv2_2 -> conv2_2
I0410 04:32:29.819181 25986 net.cpp:124] Setting up conv2_2
I0410 04:32:29.819211 25986 net.cpp:131] Top shape: 10 128 113 113 (16344320)
I0410 04:32:29.819219 25986 net.cpp:139] Memory required for data: 765476840
I0410 04:32:29.819234 25986 layer_factory.hpp:77] Creating layer relu2_2
I0410 04:32:29.819250 25986 net.cpp:86] Creating Layer relu2_2
I0410 04:32:29.819258 25986 net.cpp:408] relu2_2 <- conv2_2
I0410 04:32:29.819269 25986 net.cpp:369] relu2_2 -> conv2_2 (in-place)
I0410 04:32:29.819684 25986 net.cpp:124] Setting up relu2_2
I0410 04:32:29.819707 25986 net.cpp:131] Top shape: 10 128 113 113 (16344320)
I0410 04:32:29.819715 25986 net.cpp:139] Memory required for data: 830854120
I0410 04:32:29.819722 25986 layer_factory.hpp:77] Creating layer pool2
I0410 04:32:29.819741 25986 net.cpp:86] Creating Layer pool2
I0410 04:32:29.819748 25986 net.cpp:408] pool2 <- conv2_2
I0410 04:32:29.819759 25986 net.cpp:382] pool2 -> pool2
I0410 04:32:29.819871 25986 net.cpp:124] Setting up pool2
I0410 04:32:29.819895 25986 net.cpp:131] Top shape: 10 128 57 57 (4158720)
I0410 04:32:29.819926 25986 net.cpp:139] Memory required for data: 847489000
I0410 04:32:29.819933 25986 layer_factory.hpp:77] Creating layer conv3_1
I0410 04:32:29.819954 25986 net.cpp:86] Creating Layer conv3_1
I0410 04:32:29.819969 25986 net.cpp:408] conv3_1 <- pool2
I0410 04:32:29.819991 25986 net.cpp:382] conv3_1 -> conv3_1
I0410 04:32:29.826946 25986 net.cpp:124] Setting up conv3_1
I0410 04:32:29.826972 25986 net.cpp:131] Top shape: 10 256 57 57 (8317440)
I0410 04:32:29.826978 25986 net.cpp:139] Memory required for data: 880758760
I0410 04:32:29.826993 25986 layer_factory.hpp:77] Creating layer relu3_1
I0410 04:32:29.827003 25986 net.cpp:86] Creating Layer relu3_1
I0410 04:32:29.827009 25986 net.cpp:408] relu3_1 <- conv3_1
I0410 04:32:29.827021 25986 net.cpp:369] relu3_1 -> conv3_1 (in-place)
I0410 04:32:29.827461 25986 net.cpp:124] Setting up relu3_1
I0410 04:32:29.827477 25986 net.cpp:131] Top shape: 10 256 57 57 (8317440)
I0410 04:32:29.827481 25986 net.cpp:139] Memory required for data: 914028520
I0410 04:32:29.827487 25986 layer_factory.hpp:77] Creating layer conv3_2
I0410 04:32:29.827502 25986 net.cpp:86] Creating Layer conv3_2
I0410 04:32:29.827507 25986 net.cpp:408] conv3_2 <- conv3_1
I0410 04:32:29.827514 25986 net.cpp:382] conv3_2 -> conv3_2
I0410 04:32:29.836323 25986 net.cpp:124] Setting up conv3_2
I0410 04:32:29.836339 25986 net.cpp:131] Top shape: 10 256 57 57 (8317440)
I0410 04:32:29.836344 25986 net.cpp:139] Memory required for data: 947298280
I0410 04:32:29.836350 25986 layer_factory.hpp:77] Creating layer relu3_2
I0410 04:32:29.836357 25986 net.cpp:86] Creating Layer relu3_2
I0410 04:32:29.836361 25986 net.cpp:408] relu3_2 <- conv3_2
I0410 04:32:29.836366 25986 net.cpp:369] relu3_2 -> conv3_2 (in-place)
I0410 04:32:29.836726 25986 net.cpp:124] Setting up relu3_2
I0410 04:32:29.836740 25986 net.cpp:131] Top shape: 10 256 57 57 (8317440)
I0410 04:32:29.836745 25986 net.cpp:139] Memory required for data: 980568040
I0410 04:32:29.836748 25986 layer_factory.hpp:77] Creating layer conv3_3
I0410 04:32:29.836762 25986 net.cpp:86] Creating Layer conv3_3
I0410 04:32:29.836767 25986 net.cpp:408] conv3_3 <- conv3_2
I0410 04:32:29.836776 25986 net.cpp:382] conv3_3 -> conv3_3
I0410 04:32:29.843696 25986 net.cpp:124] Setting up conv3_3
I0410 04:32:29.843709 25986 net.cpp:131] Top shape: 10 256 57 57 (8317440)
I0410 04:32:29.843713 25986 net.cpp:139] Memory required for data: 1013837800
I0410 04:32:29.843719 25986 layer_factory.hpp:77] Creating layer relu3_3
I0410 04:32:29.843724 25986 net.cpp:86] Creating Layer relu3_3
I0410 04:32:29.843726 25986 net.cpp:408] relu3_3 <- conv3_3
I0410 04:32:29.843731 25986 net.cpp:369] relu3_3 -> conv3_3 (in-place)
I0410 04:32:29.843896 25986 net.cpp:124] Setting up relu3_3
I0410 04:32:29.843905 25986 net.cpp:131] Top shape: 10 256 57 57 (8317440)
I0410 04:32:29.843909 25986 net.cpp:139] Memory required for data: 1047107560
I0410 04:32:29.843911 25986 layer_factory.hpp:77] Creating layer pool3
I0410 04:32:29.843919 25986 net.cpp:86] Creating Layer pool3
I0410 04:32:29.843920 25986 net.cpp:408] pool3 <- conv3_3
I0410 04:32:29.843924 25986 net.cpp:382] pool3 -> pool3
I0410 04:32:29.843962 25986 net.cpp:124] Setting up pool3
I0410 04:32:29.843967 25986 net.cpp:131] Top shape: 10 256 29 29 (2152960)
I0410 04:32:29.843971 25986 net.cpp:139] Memory required for data: 1055719400
I0410 04:32:29.843973 25986 layer_factory.hpp:77] Creating layer conv4_1
I0410 04:32:29.843984 25986 net.cpp:86] Creating Layer conv4_1
I0410 04:32:29.843988 25986 net.cpp:408] conv4_1 <- pool3
I0410 04:32:29.843997 25986 net.cpp:382] conv4_1 -> conv4_1
I0410 04:32:29.854775 25986 net.cpp:124] Setting up conv4_1
I0410 04:32:29.854794 25986 net.cpp:131] Top shape: 10 512 29 29 (4305920)
I0410 04:32:29.854796 25986 net.cpp:139] Memory required for data: 1072943080
I0410 04:32:29.854802 25986 layer_factory.hpp:77] Creating layer relu4_1
I0410 04:32:29.854809 25986 net.cpp:86] Creating Layer relu4_1
I0410 04:32:29.854811 25986 net.cpp:408] relu4_1 <- conv4_1
I0410 04:32:29.854831 25986 net.cpp:369] relu4_1 -> conv4_1 (in-place)
I0410 04:32:29.854975 25986 net.cpp:124] Setting up relu4_1
I0410 04:32:29.854984 25986 net.cpp:131] Top shape: 10 512 29 29 (4305920)
I0410 04:32:29.854987 25986 net.cpp:139] Memory required for data: 1090166760
I0410 04:32:29.854990 25986 layer_factory.hpp:77] Creating layer conv4_2
I0410 04:32:29.854998 25986 net.cpp:86] Creating Layer conv4_2
I0410 04:32:29.855000 25986 net.cpp:408] conv4_2 <- conv4_1
I0410 04:32:29.855005 25986 net.cpp:382] conv4_2 -> conv4_2
I0410 04:32:29.870755 25986 net.cpp:124] Setting up conv4_2
I0410 04:32:29.870776 25986 net.cpp:131] Top shape: 10 512 29 29 (4305920)
I0410 04:32:29.870779 25986 net.cpp:139] Memory required for data: 1107390440
I0410 04:32:29.870788 25986 layer_factory.hpp:77] Creating layer relu4_2
I0410 04:32:29.870795 25986 net.cpp:86] Creating Layer relu4_2
I0410 04:32:29.870797 25986 net.cpp:408] relu4_2 <- conv4_2
I0410 04:32:29.870800 25986 net.cpp:369] relu4_2 -> conv4_2 (in-place)
I0410 04:32:29.870923 25986 net.cpp:124] Setting up relu4_2
I0410 04:32:29.870930 25986 net.cpp:131] Top shape: 10 512 29 29 (4305920)
I0410 04:32:29.870932 25986 net.cpp:139] Memory required for data: 1124614120
I0410 04:32:29.870934 25986 layer_factory.hpp:77] Creating layer conv4_3
I0410 04:32:29.870941 25986 net.cpp:86] Creating Layer conv4_3
I0410 04:32:29.870944 25986 net.cpp:408] conv4_3 <- conv4_2
I0410 04:32:29.870947 25986 net.cpp:382] conv4_3 -> conv4_3
I0410 04:32:29.886353 25986 net.cpp:124] Setting up conv4_3
I0410 04:32:29.886373 25986 net.cpp:131] Top shape: 10 512 29 29 (4305920)
I0410 04:32:29.886376 25986 net.cpp:139] Memory required for data: 1141837800
I0410 04:32:29.886381 25986 layer_factory.hpp:77] Creating layer relu4_3
I0410 04:32:29.886386 25986 net.cpp:86] Creating Layer relu4_3
I0410 04:32:29.886391 25986 net.cpp:408] relu4_3 <- conv4_3
I0410 04:32:29.886395 25986 net.cpp:369] relu4_3 -> conv4_3 (in-place)
I0410 04:32:29.886519 25986 net.cpp:124] Setting up relu4_3
I0410 04:32:29.886526 25986 net.cpp:131] Top shape: 10 512 29 29 (4305920)
I0410 04:32:29.886529 25986 net.cpp:139] Memory required for data: 1159061480
I0410 04:32:29.886531 25986 layer_factory.hpp:77] Creating layer pool4
I0410 04:32:29.886535 25986 net.cpp:86] Creating Layer pool4
I0410 04:32:29.886539 25986 net.cpp:408] pool4 <- conv4_3
I0410 04:32:29.886543 25986 net.cpp:382] pool4 -> pool4
I0410 04:32:29.886575 25986 net.cpp:124] Setting up pool4
I0410 04:32:29.886581 25986 net.cpp:131] Top shape: 10 512 28 28 (4014080)
I0410 04:32:29.886585 25986 net.cpp:139] Memory required for data: 1175117800
I0410 04:32:29.886587 25986 layer_factory.hpp:77] Creating layer conv5_1
I0410 04:32:29.886595 25986 net.cpp:86] Creating Layer conv5_1
I0410 04:32:29.886597 25986 net.cpp:408] conv5_1 <- pool4
I0410 04:32:29.886600 25986 net.cpp:382] conv5_1 -> conv5_1
I0410 04:32:29.901398 25986 net.cpp:124] Setting up conv5_1
I0410 04:32:29.901417 25986 net.cpp:131] Top shape: 10 512 28 28 (4014080)
I0410 04:32:29.901419 25986 net.cpp:139] Memory required for data: 1191174120
I0410 04:32:29.901424 25986 layer_factory.hpp:77] Creating layer relu5_1
I0410 04:32:29.901432 25986 net.cpp:86] Creating Layer relu5_1
I0410 04:32:29.901435 25986 net.cpp:408] relu5_1 <- conv5_1
I0410 04:32:29.901439 25986 net.cpp:369] relu5_1 -> conv5_1 (in-place)
I0410 04:32:29.901770 25986 net.cpp:124] Setting up relu5_1
I0410 04:32:29.901778 25986 net.cpp:131] Top shape: 10 512 28 28 (4014080)
I0410 04:32:29.901780 25986 net.cpp:139] Memory required for data: 1207230440
I0410 04:32:29.901782 25986 layer_factory.hpp:77] Creating layer conv5_2
I0410 04:32:29.901789 25986 net.cpp:86] Creating Layer conv5_2
I0410 04:32:29.901793 25986 net.cpp:408] conv5_2 <- conv5_1
I0410 04:32:29.901796 25986 net.cpp:382] conv5_2 -> conv5_2
I0410 04:32:29.916568 25986 net.cpp:124] Setting up conv5_2
I0410 04:32:29.916589 25986 net.cpp:131] Top shape: 10 512 28 28 (4014080)
I0410 04:32:29.916592 25986 net.cpp:139] Memory required for data: 1223286760
I0410 04:32:29.916597 25986 layer_factory.hpp:77] Creating layer relu5_2
I0410 04:32:29.916620 25986 net.cpp:86] Creating Layer relu5_2
I0410 04:32:29.916622 25986 net.cpp:408] relu5_2 <- conv5_2
I0410 04:32:29.916626 25986 net.cpp:369] relu5_2 -> conv5_2 (in-place)
I0410 04:32:29.916795 25986 net.cpp:124] Setting up relu5_2
I0410 04:32:29.916803 25986 net.cpp:131] Top shape: 10 512 28 28 (4014080)
I0410 04:32:29.916805 25986 net.cpp:139] Memory required for data: 1239343080
I0410 04:32:29.916807 25986 layer_factory.hpp:77] Creating layer conv5_3
I0410 04:32:29.916816 25986 net.cpp:86] Creating Layer conv5_3
I0410 04:32:29.916818 25986 net.cpp:408] conv5_3 <- conv5_2
I0410 04:32:29.916822 25986 net.cpp:382] conv5_3 -> conv5_3
I0410 04:32:29.931660 25986 net.cpp:124] Setting up conv5_3
I0410 04:32:29.931682 25986 net.cpp:131] Top shape: 10 512 28 28 (4014080)
I0410 04:32:29.931684 25986 net.cpp:139] Memory required for data: 1255399400
I0410 04:32:29.931690 25986 layer_factory.hpp:77] Creating layer relu5_3
I0410 04:32:29.931696 25986 net.cpp:86] Creating Layer relu5_3
I0410 04:32:29.931699 25986 net.cpp:408] relu5_3 <- conv5_3
I0410 04:32:29.931704 25986 net.cpp:369] relu5_3 -> conv5_3 (in-place)
I0410 04:32:29.931870 25986 net.cpp:124] Setting up relu5_3
I0410 04:32:29.931877 25986 net.cpp:131] Top shape: 10 512 28 28 (4014080)
I0410 04:32:29.931879 25986 net.cpp:139] Memory required for data: 1271455720
I0410 04:32:29.931881 25986 layer_factory.hpp:77] Creating layer sw_conv1
I0410 04:32:29.931891 25986 net.cpp:86] Creating Layer sw_conv1
I0410 04:32:29.931893 25986 net.cpp:408] sw_conv1 <- data_data_0_split_1
I0410 04:32:29.931897 25986 net.cpp:382] sw_conv1 -> sw_conv1
I0410 04:32:29.932705 25986 net.cpp:124] Setting up sw_conv1
I0410 04:32:29.932713 25986 net.cpp:131] Top shape: 10 24 227 227 (12366960)
I0410 04:32:29.932716 25986 net.cpp:139] Memory required for data: 1320923560
I0410 04:32:29.932719 25986 layer_factory.hpp:77] Creating layer sw_relu1
I0410 04:32:29.932723 25986 net.cpp:86] Creating Layer sw_relu1
I0410 04:32:29.932725 25986 net.cpp:408] sw_relu1 <- sw_conv1
I0410 04:32:29.932729 25986 net.cpp:369] sw_relu1 -> sw_conv1 (in-place)
I0410 04:32:29.932845 25986 net.cpp:124] Setting up sw_relu1
I0410 04:32:29.932852 25986 net.cpp:131] Top shape: 10 24 227 227 (12366960)
I0410 04:32:29.932853 25986 net.cpp:139] Memory required for data: 1370391400
I0410 04:32:29.932855 25986 layer_factory.hpp:77] Creating layer sw_pool1
I0410 04:32:29.932859 25986 net.cpp:86] Creating Layer sw_pool1
I0410 04:32:29.932862 25986 net.cpp:408] sw_pool1 <- sw_conv1
I0410 04:32:29.932865 25986 net.cpp:382] sw_pool1 -> sw_pool1
I0410 04:32:29.933097 25986 net.cpp:124] Setting up sw_pool1
I0410 04:32:29.933105 25986 net.cpp:131] Top shape: 10 24 112 112 (3010560)
I0410 04:32:29.933107 25986 net.cpp:139] Memory required for data: 1382433640
I0410 04:32:29.933109 25986 layer_factory.hpp:77] Creating layer sw_conv2
I0410 04:32:29.933115 25986 net.cpp:86] Creating Layer sw_conv2
I0410 04:32:29.933117 25986 net.cpp:408] sw_conv2 <- sw_pool1
I0410 04:32:29.933120 25986 net.cpp:382] sw_conv2 -> sw_conv2
I0410 04:32:29.933912 25986 net.cpp:124] Setting up sw_conv2
I0410 04:32:29.933919 25986 net.cpp:131] Top shape: 10 24 114 114 (3119040)
I0410 04:32:29.933921 25986 net.cpp:139] Memory required for data: 1394909800
I0410 04:32:29.933925 25986 layer_factory.hpp:77] Creating layer sw_relu2
I0410 04:32:29.933928 25986 net.cpp:86] Creating Layer sw_relu2
I0410 04:32:29.933930 25986 net.cpp:408] sw_relu2 <- sw_conv2
I0410 04:32:29.933934 25986 net.cpp:369] sw_relu2 -> sw_conv2 (in-place)
I0410 04:32:29.934056 25986 net.cpp:124] Setting up sw_relu2
I0410 04:32:29.934062 25986 net.cpp:131] Top shape: 10 24 114 114 (3119040)
I0410 04:32:29.934063 25986 net.cpp:139] Memory required for data: 1407385960
I0410 04:32:29.934065 25986 layer_factory.hpp:77] Creating layer sw_pool2
I0410 04:32:29.934069 25986 net.cpp:86] Creating Layer sw_pool2
I0410 04:32:29.934072 25986 net.cpp:408] sw_pool2 <- sw_conv2
I0410 04:32:29.934075 25986 net.cpp:382] sw_pool2 -> sw_pool2
I0410 04:32:29.934204 25986 net.cpp:124] Setting up sw_pool2
I0410 04:32:29.934218 25986 net.cpp:131] Top shape: 10 24 56 56 (752640)
I0410 04:32:29.934221 25986 net.cpp:139] Memory required for data: 1410396520
I0410 04:32:29.934222 25986 layer_factory.hpp:77] Creating layer sw_conv3
I0410 04:32:29.934228 25986 net.cpp:86] Creating Layer sw_conv3
I0410 04:32:29.934231 25986 net.cpp:408] sw_conv3 <- sw_pool2
I0410 04:32:29.934234 25986 net.cpp:382] sw_conv3 -> sw_conv3
I0410 04:32:29.934921 25986 net.cpp:124] Setting up sw_conv3
I0410 04:32:29.934929 25986 net.cpp:131] Top shape: 10 24 58 58 (807360)
I0410 04:32:29.934932 25986 net.cpp:139] Memory required for data: 1413625960
I0410 04:32:29.934937 25986 layer_factory.hpp:77] Creating layer sw_relu3
I0410 04:32:29.934939 25986 net.cpp:86] Creating Layer sw_relu3
I0410 04:32:29.934942 25986 net.cpp:408] sw_relu3 <- sw_conv3
I0410 04:32:29.934944 25986 net.cpp:369] sw_relu3 -> sw_conv3 (in-place)
I0410 04:32:29.935065 25986 net.cpp:124] Setting up sw_relu3
I0410 04:32:29.935070 25986 net.cpp:131] Top shape: 10 24 58 58 (807360)
I0410 04:32:29.935072 25986 net.cpp:139] Memory required for data: 1416855400
I0410 04:32:29.935075 25986 layer_factory.hpp:77] Creating layer sw_pool3
I0410 04:32:29.935078 25986 net.cpp:86] Creating Layer sw_pool3
I0410 04:32:29.935081 25986 net.cpp:408] sw_pool3 <- sw_conv3
I0410 04:32:29.935084 25986 net.cpp:382] sw_pool3 -> sw_pool3
I0410 04:32:29.935210 25986 net.cpp:124] Setting up sw_pool3
I0410 04:32:29.935216 25986 net.cpp:131] Top shape: 10 24 28 28 (188160)
I0410 04:32:29.935218 25986 net.cpp:139] Memory required for data: 1417608040
I0410 04:32:29.935220 25986 layer_factory.hpp:77] Creating layer concat1
I0410 04:32:29.935228 25986 net.cpp:86] Creating Layer concat1
I0410 04:32:29.935230 25986 net.cpp:408] concat1 <- conv5_3
I0410 04:32:29.935233 25986 net.cpp:408] concat1 <- sw_pool3
I0410 04:32:29.935237 25986 net.cpp:382] concat1 -> concat1
I0410 04:32:29.935256 25986 net.cpp:124] Setting up concat1
I0410 04:32:29.935259 25986 net.cpp:131] Top shape: 10 536 28 28 (4202240)
I0410 04:32:29.935262 25986 net.cpp:139] Memory required for data: 1434417000
I0410 04:32:29.935264 25986 layer_factory.hpp:77] Creating layer conv6
I0410 04:32:29.935269 25986 net.cpp:86] Creating Layer conv6
I0410 04:32:29.935272 25986 net.cpp:408] conv6 <- concat1
I0410 04:32:29.935276 25986 net.cpp:382] conv6 -> conv6
I0410 04:32:29.935976 25986 net.cpp:124] Setting up conv6
I0410 04:32:29.935984 25986 net.cpp:131] Top shape: 10 1 28 28 (7840)
I0410 04:32:29.935986 25986 net.cpp:139] Memory required for data: 1434448360
I0410 04:32:29.935994 25986 layer_factory.hpp:77] Creating layer loss
I0410 04:32:29.935998 25986 net.cpp:86] Creating Layer loss
I0410 04:32:29.936000 25986 net.cpp:408] loss <- conv6
I0410 04:32:29.936002 25986 net.cpp:408] loss <- label
I0410 04:32:29.936007 25986 net.cpp:382] loss -> loss
I0410 04:32:29.936041 25986 net.cpp:124] Setting up loss
…
